…
{"base_uri":"https://localhost:8080/"},"executionInfo":{"status":"ok","timestamp":1703330302536,"user_tz":-330,"elapsed":37,"user":{"displayName":"Shreyash Chaudhari","userId":"12887883827542981334"}},"outputId":"17aaa5e2-6efd-41cd-9477-777a930419f7"},"execution_count":16,"outputs":[{"output_type":"stream","name":"stdout","text":["Model: \"sequential_2\"\n","_________________________________________________________________\n"," Layer (type)                Output Shape              Param #   \n","=================================================================\n"," sequential (Sequential)     (32, 256, 256, 3)         0         \n","                                                                 \n"," sequential_1 (Sequential)   (32, 256, 256, 3)         0         \n","                                                                 \n"," conv2d (Conv2D)             (32, 254, 254, 32)        896       \n","                                                                 \n"," max_pooling2d (MaxPooling2  (32, 127, 127, 32)        0         \n"," D)                                                              \n","                                                                 \n"," conv2d_1 (Conv2D)           (32, 125, 125, 64)        18496     \n","                                                                 \n"," max_pooling2d_1 (MaxPoolin  (32, 62, 62, 64)          0         \n"," g2D)                                                            \n","                                                                 \n"," conv2d_2 (Conv2D)           (32, 60, 60, 64)          36928     \n","                                                                 \n"," max_pooling2d_2 (MaxPoolin  (32, 30, 30, 64)          0         \n"," g2D)                                                            \n","                                                                 \n"," conv2d_3 (Conv2D)           (32, 28, 28, 64)          36928     \n","                                                                 \n"," max_pooling2d_3 (MaxPoolin  (32, 14, 14, 64)          0         \n"," g2D)                                                            \n","                                                                 \n"," conv2d_4 (Conv2D)           (32, 12, 12, 64)          36928     \n","                                                                 \n"," max_pooling2d_4 (MaxPoolin  (32, 6, 6, 64)            0         \n"," g2D)                                                            \n","                                                                 \n"," conv2d_5 (Conv2D)           (32, 4, 4, 64)            36928     \n","                                                                 \n"," max_pooling2d_5 (MaxPoolin  (32, 2, 2, 64)            0         \n"," g2D)                                                            \n","                                                                 \n"," flatten (Flatten)           (32, 256)                 0         \n","                                                                 \n"," dense (Dense)               (32, 64)                  16448     \n","                                                                 \n"," dense_1 (Dense)             (32, 8)                   520       \n","                                                                 \n","=================================================================\n","Total params: 184072 (719.03 KB)\n","Trainable params: 184072 (719.03 KB)\n","Non-trainable params: 0 (0.00 Byte)\n","_________________________________________________________________\n"]}]},{"cell_type":"code","source":["model.compile( optimizer='
…
